…
W1111 12:46:14.825419 11122 _caffe.cpp:123] Use this instead (with the named "weights" parameter):
W1111 12:46:14.825425 11122 _caffe.cpp:125] Net('./models/finetune-xray-alexnet-shuffle/deploy.prototxt', 1, weights='./models/finetune-xray-alexnet-shuffle/finetune_alexNet_xray_iter_50000.caffemodel')
I1111 12:46:14.828547 11122 net.cpp:58] Initializing net from parameters: 
name: "TestCaffeNet"
state {
  phase: TEST
  level: 0
}
layer {
  name: "data"
  type: "Input"
  top: "data"
  input_param {
    shape {
      dim: 10
      dim: 3
      dim: 227
      dim: 227
    }
  }
}
layer {
  name: "conv1"
  type: "Convolution"
  bottom: "data"
  top: "conv1"
  convolution_param {
    num_output: 96
    kernel_size: 11
    stride: 4
  }
}
layer {
  name: "relu1"
  type: "ReLU"
  bottom: "conv1"
  top: "conv1"
}
layer {
  name: "pool1"
  type: "Pooling"
  bottom: "conv1"
  top: "pool1"
  pooling_param {
    pool: MAX
    kernel_size: 3
    stride: 2
  }
}
layer {
  name: "norm1"
  type: "LRN"
  bottom: "pool1"
  top: "norm1"
  lrn_param {
    local_size: 5
    alpha: 0.0001
    beta: 0.75
  }
}
layer {
  name: "conv2"
  type: "Convolution"
  bottom: "norm1"
  top: "conv2"
  convolution_param {
    num_output: 256
    pad: 2
    kernel_size: 5
    group: 2
  }
}
layer {
  name: "relu2"
  type: "ReLU"
  bottom: "conv2"
  top: "conv2"
}
layer {
  name: "pool2"
  type: "Pooling"
  bottom: "conv2"
  top: "pool2"
  pooling_param {
    pool: MAX
    kernel_size: 3
    stride: 2
  }
}
layer {
  name: "norm2"
  type: "LRN"
  bottom: "pool2"
  top: "norm2"
  lrn_param {
    local_size: 5
    alpha: 0.0001
    beta: 0.75
  }
}
layer {
  name: "conv3"
  type: "Convolution"
  bottom: "norm2"
  top: "conv3"
  convolution_param {
    num_output: 384
    pad: 1
    kernel_size: 3
  }
}
layer {
  name: "relu3"
  type: "ReLU"
  bottom: "conv3"
  top: "conv3"
}
layer {
  name: "conv4"
  type: "Convolution"
  bottom: "conv3"
  top: "conv4"
  convolution_param {
    num_output: 384
    pad: 1
    kernel_size: 3
    group: 2
  }
}
layer {
  name: "relu4"
  type: "ReLU"
  bottom: "conv4"
  top: "conv4"
}
layer {
  name: "conv5"
  type: "Convolution"
  bottom: "conv4"
  top: "conv5"
  convolution_param {
    num_output: 256
    pad: 1
    kernel_size: 3
    group: 2
  }
}
layer {
  name: "relu5"
  type: "ReLU"
  bottom: "conv5"
  top: "conv5"
}
layer {
  name: "pool5"
  type: "Pooling"
  bottom: "conv5"
  top: "pool5"
  pooling_param {
    pool: MAX
    kernel_size: 3
    stride: 2
  }
}
layer {
  name: "fc6"
  type: "InnerProduct"
  bottom: "pool5"
  top: "fc6"
  inner_product_param {
    num_output: 4096
  }
}
layer {
  name: "relu6"
  type: "ReLU"
  bottom: "fc6"
  top: "fc6"
}
layer {
  name: "drop6"
  type: "Dropout"
  bottom: "fc6"
  top: "fc6"
  dropout_param {
    dropout_ratio: 0.5
  }
}
layer {
  name: "fc7"
  type: "InnerProduct"
  bottom: "fc6"
  top: "fc7"
  inner_product_param {
    num_output: 4096
  }
}
layer {
  name: "relu7"
  type: "ReLU"
  bottom: "fc7"
  top: "fc7"
}
layer {
  name: "drop7"
  type: "Dropout"
  bottom: "fc7"
  top: "fc7"
  dropout_param {
    dropout_ratio: 0.5
  }
}
layer {
  name: "fc8_test"
  type: "InnerProduct"
  bottom: "fc7"
  top: "fc8_test"
  inner_product_param {
    num_output: 4
  }
}
layer {
  name: "prob"
  type: "Softmax"
  bottom: "fc8_test"
  top: "prob"
}
I1111 12:46:14.828680 11122 layer_factory.hpp:77] Creating layer data
I1111 12:46:14.828708 11122 net.cpp:100] Creating Layer data
I1111 12:46:14.828719 11122 net.cpp:408] data -> data
I1111 12:46:14.851511 11122 net.cpp:150] Setting up data
I1111 12:46:14.851544 11122 net.cpp:157] Top shape: 10 3 227 227 (1545870)
I1111 12:46:14.851550 11122 net.cpp:165] Memory required for data: 6183480
I1111 12:46:14.851559 11122 layer_factory.hpp:77] Creating layer conv1
I1111 12:46:14.851582 11122 net.cpp:100] Creating Layer conv1
I1111 12:46:14.851588 11122 net.cpp:434] conv1 <- data
I1111 12:46:14.851598 11122 net.cpp:408] conv1 -> conv1
I1111 12:46:15.092113 11122 net.cpp:150] Setting up conv1
I1111 12:46:15.092170 11122 net.cpp:157] Top shape: 10 96 55 55 (2904000)
I1111 12:46:15.092176 11122 net.cpp:165] Memory required for data: 17799480
I1111 12:46:15.092221 11122 layer_factory.hpp:77] Creating layer relu1
I1111 12:46:15.092247 11122 net.cpp:100] Creating Layer relu1
I1111 12:46:15.092255 11122 net.cpp:434] relu1 <- conv1
I1111 12:46:15.092265 11122 net.cpp:395] relu1 -> conv1 (in-place)
I1111 12:46:15.092507 11122 net.cpp:150] Setting up relu1
I1111 12:46:15.092524 11122 net.cpp:157] Top shape: 10 96 55 55 (2904000)
I1111 12:46:15.092530 11122 net.cpp:165] Memory required for data: 29415480
I1111 12:46:15.092535 11122 layer_factory.hpp:77] Creating layer pool1
I1111 12:46:15.092551 11122 net.cpp:100] Creating Layer pool1
I1111 12:46:15.092556 11122 net.cpp:434] pool1 <- conv1
I1111 12:46:15.092564 11122 net.cpp:408] pool1 -> pool1
I1111 12:46:15.092644 11122 net.cpp:150] Setting up pool1
I1111 12:46:15.092658 11122 net.cpp:157] Top shape: 10 96 27 27 (699840)
I1111 12:46:15.092664 11122 net.cpp:165] Memory required for data: 32214840
I1111 12:46:15.092669 11122 layer_factory.hpp:77] Creating layer norm1
I1111 12:46:15.092686 11122 net.cpp:100] Creating Layer norm1
I1111 12:46:15.092694 11122 net.cpp:434] norm1 <- pool1
I1111 12:46:15.092701 11122 net.cpp:408] norm1 -> norm1
I1111 12:46:15.093168 11122 net.cpp:150] Setting up norm1
I1111 12:46:15.093185 11122 net.cpp:157] Top shape: 10 96 27 27 (699840)
I1111 12:46:15.093191 11122 net.cpp:165] Memory required for data: 35014200
I1111 12:46:15.093197 11122 layer_factory.hpp:77] Creating layer conv2
I1111 12:46:15.093214 11122 net.cpp:100] Creating Layer conv2
I1111 12:46:15.093220 11122 net.cpp:434] conv2 <- norm1
I1111 12:46:15.093228 11122 net.cpp:408] conv2 -> conv2
I1111 12:46:15.097599 11122 net.cpp:150] Setting up conv2
I1111 12:46:15.097625 11122 net.cpp:157] Top shape: 10 256 27 27 (1866240)
I1111 12:46:15.097631 11122 net.cpp:165] Memory required for data: 42479160
I1111 12:46:15.097647 11122 layer_factory.hpp:77] Creating layer relu2
I1111 12:46:15.097658 11122 net.cpp:100] Creating Layer relu2
I1111 12:46:15.097663 11122 net.cpp:434] relu2 <- conv2
I1111 12:46:15.097671 11122 net.cpp:395] relu2 -> conv2 (in-place)
I1111 12:46:15.097898 11122 net.cpp:150] Setting up relu2
I1111 12:46:15.097914 11122 net.cpp:157] Top shape: 10 256 27 27 (1866240)
I1111 12:46:15.097919 11122 net.cpp:165] Memory required for data: 49944120
I1111 12:46:15.097926 11122 layer_factory.hpp:77] Creating layer pool2
I1111 12:46:15.097937 11122 net.cpp:100] Creating Layer pool2
I1111 12:46:15.097944 11122 net.cpp:434] pool2 <- conv2
I1111 12:46:15.097954 11122 net.cpp:408] pool2 -> pool2
I1111 12:46:15.098011 11122 net.cpp:150] Setting up pool2
I1111 12:46:15.098022 11122 net.cpp:157] Top shape: 10 256 13 13 (432640)
I1111 12:46:15.098027 11122 net.cpp:165] Memory required for data: 51674680
I1111 12:46:15.098033 11122 layer_factory.hpp:77] Creating layer norm2
I1111 12:46:15.098044 11122 net.cpp:100] Creating Layer norm2
I1111 12:46:15.098052 11122 net.cpp:434] norm2 <- pool2
I1111 12:46:15.098060 11122 net.cpp:408] norm2 -> norm2
I1111 12:46:15.098513 11122 net.cpp:150] Setting up norm2
I1111 12:46:15.098531 11122 net.cpp:157] Top shape: 10 256 13 13 (432640)
I1111 12:46:15.098536 11122 net.cpp:165] Memory required for data: 53405240
I1111 12:46:15.098541 11122 layer_factory.hpp:77] Creating layer conv3
I1111 12:46:15.098554 11122 net.cpp:100] Creating Layer conv3
I1111 12:46:15.098559 11122 net.cpp:434] conv3 <- norm2
I1111 12:46:15.098568 11122 net.cpp:408] conv3 -> conv3
I1111 12:46:15.103339 11122 net.cpp:150] Setting up conv3
I1111 12:46:15.103359 11122 net.cpp:157] Top shape: 10 384 13 13 (648960)
I1111 12:46:15.103365 11122 net.cpp:165] Memory required for data: 56001080
I1111 12:46:15.103380 11122 layer_factory.hpp:77] Creating layer relu3
I1111 12:46:15.103391 11122 net.cpp:100] Creating Layer relu3
I1111 12:46:15.103399 11122 net.cpp:434] relu3 <- conv3
I1111 12:46:15.103407 11122 net.cpp:395] relu3 -> conv3 (in-place)
I1111 12:46:15.103863 11122 net.cpp:150] Setting up relu3
I1111 12:46:15.103879 11122 net.cpp:157] Top shape: 10 384 13 13 (648960)
I1111 12:46:15.103885 11122 net.cpp:165] Memory required for data: 58596920
I1111 12:46:15.103890 11122 layer_factory.hpp:77] Creating layer conv4
I1111 12:46:15.103905 11122 net.cpp:100] Creating Layer conv4
I1111 12:46:15.103910 11122 net.cpp:434] conv4 <- conv3
I1111 12:46:15.103919 11122 net.cpp:408] conv4 -> conv4
I1111 12:46:15.109160 11122 net.cpp:150] Setting up conv4
I1111 12:46:15.109181 11122 net.cpp:157] Top shape: 10 384 13 13 (648960)
I1111 12:46:15.109187 11122 net.cpp:165] Memory required for data: 61192760
I1111 12:46:15.109199 11122 layer_factory.hpp:77] Creating layer relu4
I1111 12:46:15.109208 11122 net.cpp:100] Creating Layer relu4
I1111 12:46:15.109215 11122 net.cpp:434] relu4 <- conv4
I1111 12:46:15.109225 11122 net.cpp:395] relu4 -> conv4 (in-place)
I1111 12:46:15.109465 11122 net.cpp:150] Setting up relu4
I1111 12:46:15.109482 11122 net.cpp:157] Top shape: 10 384 13 13 (648960)
I1111 12:46:15.109486 11122 net.cpp:165] Memory required for data: 63788600
I1111 12:46:15.109491 11122 layer_factory.hpp:77] Creating layer conv5
I1111 12:46:15.109506 11122 net.cpp:100] Creating Layer conv5
I1111 12:46:15.109511 11122 net.cpp:434] conv5 <- conv4
I1111 12:46:15.109521 11122 net.cpp:408] conv5 -> conv5
I1111 12:46:15.114240 11122 net.cpp:150] Setting up conv5
I1111 12:46:15.114260 11122 net.cpp:157] Top shape: 10 256 13 13 (432640)
I1111 12:46:15.114266 11122 net.cpp:165] Memory required for data: 65519160
I1111 12:46:15.114282 11122 layer_factory.hpp:77] Creating layer relu5
I1111 12:46:15.114292 11122 net.cpp:100] Creating Layer relu5
I1111 12:46:15.114301 11122 net.cpp:434] relu5 <- conv5
I1111 12:46:15.114308 11122 net.cpp:395] relu5 -> conv5 (in-place)
I1111 12:46:15.114557 11122 net.cpp:150] Setting up relu5
I1111 12:46:15.114573 11122 net.cpp:157] Top shape: 10 256 13 13 (432640)
I1111 12:46:15.114579 11122 net.cpp:165] Memory required for data: 67249720
I1111 12:46:15.114584 11122 layer_factory.hpp:77] Creating layer pool5
I1111 12:46:15.114598 11122 net.cpp:100] Creating Layer pool5
I1111 12:46:15.114603 11122 net.cpp:434] pool5 <- conv5
I1111 12:46:15.114612 11122 net.cpp:408] pool5 -> pool5
I1111 12:46:15.114686 11122 net.cpp:150] Setting up pool5
I1111 12:46:15.114701 11122 net.cpp:157] Top shape: 10 256 6 6 (92160)
I1111 12:46:15.114704 11122 net.cpp:165] Memory required for data: 67618360
I1111 12:46:15.114711 11122 layer_factory.hpp:77] Creating layer fc6
I1111 12:46:15.114737 11122 net.cpp:100] Creating Layer fc6
I1111 12:46:15.114744 11122 net.cpp:434] fc6 <- pool5
I1111 12:46:15.114753 11122 net.cpp:408] fc6 -> fc6
I1111 12:46:15.261154 11122 net.cpp:150] Setting up fc6
I1111 12:46:15.261214 11122 net.cpp:157] Top shape: 10 4096 (40960)
I1111 12:46:15.261220 11122 net.cpp:165] Memory required for data: 67782200
I1111 12:46:15.261240 11122 layer_factory.hpp:77] Creating layer relu6
I1111 12:46:15.261260 11122 net.cpp:100] Creating Layer relu6
I1111 12:46:15.261266 11122 net.cpp:434] relu6 <- fc6
I1111 12:46:15.261283 11122 net.cpp:395] relu6 -> fc6 (in-place)
I1111 12:46:15.262034 11122 net.cpp:150] Setting up relu6
I1111 12:46:15.262053 11122 net.cpp:157] Top shape: 10 4096 (40960)
I1111 12:46:15.262058 11122 net.cpp:165] Memory required for data: 67946040
I1111 12:46:15.262064 11122 layer_factory.hpp:77] Creating layer drop6
I1111 12:46:15.262087 11122 net.cpp:100] Creating Layer drop6
I1111 12:46:15.262094 11122 net.cpp:434] drop6 <- fc6
I1111 12:46:15.262101 11122 net.cpp:395] drop6 -> fc6 (in-place)
I1111 12:46:15.262147 11122 net.cpp:150] Setting up drop6
I1111 12:46:15.262159 11122 net.cpp:157] Top shape: 10 4096 (40960)
I1111 12:46:15.262164 11122 net.cpp:165] Memory required for data: 68109880
I1111 12:46:15.262169 11122 layer_factory.hpp:77] Creating layer fc7
I1111 12:46:15.262186 11122 net.cpp:100] Creating Layer fc7
I1111 12:46:15.262194 11122 net.cpp:434] fc7 <- fc6
I1111 12:46:15.262207 11122 net.cpp:408] fc7 -> fc7
I1111 12:46:15.327087 11122 net.cpp:150] Setting up fc7
I1111 12:46:15.327144 11122 net.cpp:157] Top shape: 10 4096 (40960)
I1111 12:46:15.327152 11122 net.cpp:165] Memory required for data: 68273720
I1111 12:46:15.327172 11122 layer_factory.hpp:77] Creating layer relu7
I1111 12:46:15.327189 11122 net.cpp:100] Creating Layer relu7
I1111 12:46:15.327196 11122 net.cpp:434] relu7 <- fc7
I1111 12:46:15.327208 11122 net.cpp:395] relu7 -> fc7 (in-place)
I1111 12:46:15.327564 11122 net.cpp:150] Setting up relu7
I1111 12:46:15.327579 11122 net.cpp:157] Top shape: 10 4096 (40960)
I1111 12:46:15.327584 11122 net.cpp:165] Memory required for data: 68437560
I1111 12:46:15.327592 11122 layer_factory.hpp:77] Creating layer drop7
I1111 12:46:15.327610 11122 net.cpp:100] Creating Layer drop7
I1111 12:46:15.327622 11122 net.cpp:434] drop7 <- fc7
I1111 12:46:15.327630 11122 net.cpp:395] drop7 -> fc7 (in-place)
I1111 12:46:15.327672 11122 net.cpp:150] Setting up drop7
I1111 12:46:15.327683 11122 net.cpp:157] Top shape: 10 4096 (40960)
I1111 12:46:15.327688 11122 net.cpp:165] Memory required for data: 68601400
I1111 12:46:15.327693 11122 layer_factory.hpp:77] Creating layer fc8_test
I1111 12:46:15.327709 11122 net.cpp:100] Creating Layer fc8_test
I1111 12:46:15.327718 11122 net.cpp:434] fc8_test <- fc7
I1111 12:46:15.327728 11122 net.cpp:408] fc8_test -> fc8_test
I1111 12:46:15.328925 11122 net.cpp:150] Setting up fc8_test
I1111 12:46:15.328943 11122 net.cpp:157] Top shape: 10 4 (40)
I1111 12:46:15.328948 11122 net.cpp:165] Memory required for data: 68601560
I1111 12:46:15.328958 11122 layer_factory.hpp:77] Creating layer prob
I1111 12:46:15.328969 11122 net.cpp:100] Creating Layer prob
I1111 12:46:15.328974 11122 net.cpp:434] prob <- fc8_test
I1111 12:46:15.328985 11122 net.cpp:408] prob -> prob
I1111 12:46:15.329560 11122 net.cpp:150] Setting up prob
I1111 12:46:15.329577 11122 net.cpp:157] Top shape: 10 4 (40)
I1111 12:46:15.329583 11122 net.cpp:165] Memory required for data: 68601720
I1111 12:46:15.329588 11122 net.cpp:228] prob does not need backward computation.
I1111 12:46:15.329594 11122 net.cpp:228] fc8_test does not need backward computation.
I1111 12:46:15.329598 11122 net.cpp:228] drop7 does not need backward computation.
I1111 12:46:15.329603 11122 net.cpp:228] relu7 does not need backward computation.
…
