…
I0810 23:41:25.234547 21864 net.cpp:287] The NetState phase (0) differed from the phase (1) specified by a rule in layer cifar
I0810 23:41:25.234578 21864 net.cpp:287] The NetState phase (0) differed from the phase (1) specified by a rule in layer accuracy
I0810 23:41:25.234690 21864 net.cpp:42] Initializing net from parameters: 
name: "CIFAR10_quick"
state {
  phase: TRAIN
}
layer {
  name: "cifar"
  type: "Data"
  top: "data"
  top: "label"
  include {
    phase: TRAIN
  }
  transform_param {
    mean_file: "examples/cifar10/mean.binaryproto"
  }
  data_param {
    source: "examples/cifar10/cifar10_train_lmdb"
    batch_size: 100
    backend: LMDB
  }
}
layer {
  name: "conv1"
  type: "Convolution"
  bottom: "data"
  top: "conv1"
  param {
    lr_mult: 1
  }
  param {
    lr_mult: 2
  }
  convolution_param {
    num_output: 32
    pad: 2
    kernel_size: 5
    stride: 1
    weight_filler {
      type: "gaussian"
      std: 0.0001
    }
    bias_filler {
      type: "constant"
    }
  }
}
layer {
  name: "pool1"
  type: "Pooling"
  bottom: "conv1"
  top: "pool1"
  pooling_param {
    pool: MAX
    kernel_size: 3
    stride: 2
  }
}
layer {
  name: "relu1"
  type: "ReLU"
  bottom: "pool1"
  top: "pool1"
}
layer {
  name: "conv2"
  type: "Convolution"
  bottom: "pool1"
  top: "conv2"
  param {
    lr_mult: 1
  }
  param {
    lr_mult: 2
  }
  convolution_param {
    num_output: 32
    pad: 2
    kernel_size: 5
    stride: 1
    weight_filler {
      type: "gaussian"
      std: 0.01
    }
    bias_filler {
      type: "constant"
    }
  }
}
layer {
  name: "relu2"
  type: "ReLU"
  bottom: "conv2"
  top: "conv2"
}
layer {
  name: "pool2"
  type: "Pooling"
  bottom: "conv2"
  top: "pool2"
  pooling_param {
    pool: AVE
    kernel_size: 3
    stride: 2
  }
}
layer {
  name: "conv3"
  type: "Convolution"
  bottom: "pool2"
  top: "conv3"
  param {
    lr_mult: 1
  }
  param {
    lr_mult: 2
  }
  convolution_param {
    num_output: 64
    pad: 2
    kernel_size: 5
    stride: 1
    weight_filler {
      type: "gaussian"
      std: 0.01
    }
    bias_filler {
      type: "constant"
    }
  }
}
layer {
  name: "relu3"
  type: "ReLU"
  bottom: "conv3"
  top: "conv3"
}
layer {
  name: "pool3"
  type: "Pooling"
  bottom: "conv3"
  top: "pool3"
  pooling_param {
    pool: AVE
    kernel_size: 3
    stride: 2
  }
}
layer {
  name: "ip1"
  type: "InnerProduct"
  bottom: "pool3"
  top: "ip1"
  param {
    lr_mult: 1
  }
  param {
    lr_mult: 2
  }
  inner_product_param {
    num_output: 64
    weight_filler {
      type: "gaussian"
      std: 0.1
    }
    bias_filler {
      type: "constant"
    }
  }
}
layer {
  name: "ip2"
  type: "InnerProduct"
  bottom: "ip1"
  top: "ip2"
  param {
    lr_mult: 1
  }
  param {
    lr_mult: 2
  }
  inner_product_param {
    num_output: 10
    weight_filler {
      type: "gaussian"
      std: 0.1
    }
    bias_filler {
      type: "constant"
    }
  }
}
layer {
  name: "loss"
  type: "SoftmaxWithLoss"
  bottom: "ip2"
  bottom: "label"
  top: "loss"
}
I0810 23:41:25.234974 21864 net.cpp:67] Memory required for data: 0
I0810 23:41:25.235139 21864 layer_factory.hpp:74] Creating layer cifar
I0810 23:41:25.235195 21864 net.cpp:90] Creating Layer cifar
I0810 23:41:25.235255 21864 net.cpp:368] cifar -> data
I0810 23:41:25.235388 21864 net.cpp:368] cifar -> label
I0810 23:41:25.235417 21864 net.cpp:120] Setting up cifar
I0810 23:41:25.235447 21864 data_transformer.cpp:22] Loading mean file from: examples/cifar10/mean.binaryproto
I0810 23:41:25.235862 21864 db_lmdb.cpp:22] Opened lmdb examples/cifar10/cifar10_train_lmdb
I0810 23:41:25.235991 21864 data_layer.cpp:52] output data size: 100,3,32,32
I0810 23:41:25.236511 21864 base_data_layer.cpp:42] Initializing prefetch
I0810 23:41:25.236642 21864 base_data_layer.cpp:44] Prefetch initialized.
I0810 23:41:25.236690 21864 net.cpp:127] Top shape: 100 3 32 32 (307200)
I0810 23:41:25.236706 21864 net.cpp:127] Top shape: 100 (100)
I0810 23:41:25.236714 21864 net.cpp:133] Memory required for data: 1229200
I0810 23:41:25.236739 21864 layer_factory.hpp:74] Creating layer conv1
I0810 23:41:25.236821 21864 net.cpp:90] Creating Layer conv1
I0810 23:41:25.236850 21864 net.cpp:410] conv1 <- data
I0810 23:41:25.236906 21864 net.cpp:368] conv1 -> conv1
I0810 23:41:25.236944 21864 net.cpp:120] Setting up conv1
I0810 23:41:25.237895 21864 net.cpp:127] Top shape: 100 32 32 32 (3276800)
I0810 23:41:25.237905 21864 net.cpp:133] Memory required for data: 14336400
I0810 23:41:25.237957 21864 layer_factory.hpp:74] Creating layer pool1
I0810 23:41:25.237998 21864 net.cpp:90] Creating Layer pool1
I0810 23:41:25.238013 21864 net.cpp:410] pool1 <- conv1
I0810 23:41:25.238044 21864 net.cpp:368] pool1 -> pool1
I0810 23:41:25.238070 21864 net.cpp:120] Setting up pool1
I0810 23:41:25.238111 21864 net.cpp:127] Top shape: 100 32 16 16 (819200)
I0810 23:41:25.238118 21864 net.cpp:133] Memory required for data: 17613200
I0810 23:41:25.238127 21864 layer_factory.hpp:74] Creating layer relu1
I0810 23:41:25.238152 21864 net.cpp:90] Creating Layer relu1
I0810 23:41:25.238162 21864 net.cpp:410] relu1 <- pool1
I0810 23:41:25.238183 21864 net.cpp:357] relu1 -> pool1 (in-place)
I0810 23:41:25.238203 21864 net.cpp:120] Setting up relu1
I0810 23:41:25.238217 21864 net.cpp:127] Top shape: 100 32 16 16 (819200)
I0810 23:41:25.238225 21864 net.cpp:133] Memory required for data: 20890000
I0810 23:41:25.238234 21864 layer_factory.hpp:74] Creating layer conv2
I0810 23:41:25.238261 21864 net.cpp:90] Creating Layer conv2
I0810 23:41:25.238272 21864 net.cpp:410] conv2 <- pool1
I0810 23:41:25.238301 21864 net.cpp:368] conv2 -> conv2
I0810 23:41:25.238329 21864 net.cpp:120] Setting up conv2
I0810 23:41:25.240895 21868 data_layer.cpp:118] Prefetch batch: 4 ms.
I0810 23:41:25.240931 21868 data_layer.cpp:119]      Read time: 0.361 ms.
I0810 23:41:25.240936 21868 data_layer.cpp:120] Transform time: 3.491 ms.
I0810 23:41:25.241554 21864 net.cpp:127] Top shape: 100 32 16 16 (819200)
I0810 23:41:25.241564 21864 net.cpp:133] Memory required for data: 24166800
I0810 23:41:25.241596 21864 layer_factory.hpp:74] Creating layer relu2
I0810 23:41:25.241621 21864 net.cpp:90] Creating Layer relu2
I0810 23:41:25.241650 21864 net.cpp:410] relu2 <- conv2
I0810 23:41:25.241673 21864 net.cpp:357] relu2 -> conv2 (in-place)
I0810 23:41:25.241685 21864 net.cpp:120] Setting up relu2
I0810 23:41:25.241699 21864 net.cpp:127] Top shape: 100 32 16 16 (819200)
I0810 23:41:25.241703 21864 net.cpp:133] Memory required for data: 27443600
I0810 23:41:25.241708 21864 layer_factory.hpp:74] Creating layer pool2
I0810 23:41:25.241722 21864 net.cpp:90] Creating Layer pool2
I0810 23:41:25.241729 21864 net.cpp:410] pool2 <- conv2
I0810 23:41:25.241744 21864 net.cpp:368] pool2 -> pool2
I0810 23:41:25.241756 21864 net.cpp:120] Setting up pool2
I0810 23:41:25.241775 21864 net.cpp:127] Top shape: 100 32 8 8 (204800)
I0810 23:41:25.241780 21864 net.cpp:133] Memory required for data: 28262800
I0810 23:41:25.241785 21864 layer_factory.hpp:74] Creating layer conv3
I0810 23:41:25.241802 21864 net.cpp:90] Creating Layer conv3
I0810 23:41:25.241809 21864 net.cpp:410] conv3 <- pool2
I0810 23:41:25.241827 21864 net.cpp:368] conv3 -> conv3
I0810 23:41:25.241843 21864 net.cpp:120] Setting up conv3
I0810 23:41:25.247809 21864 net.cpp:127] Top shape: 100 64 8 8 (409600)
I0810 23:41:25.247820 21864 net.cpp:133] Memory required for data: 29901200
I0810 23:41:25.247856 21864 layer_factory.hpp:74] Creating layer relu3
I0810 23:41:25.247901 21864 net.cpp:90] Creating Layer relu3
I0810 23:41:25.247920 21864 net.cpp:410] relu3 <- conv3
I0810 23:41:25.247948 21864 net.cpp:357] relu3 -> conv3 (in-place)
I0810 23:41:25.247959 21864 net.cpp:120] Setting up relu3
I0810 23:41:25.247968 21864 net.cpp:127] Top shape: 100 64 8 8 (409600)
I0810 23:41:25.247972 21864 net.cpp:133] Memory required for data: 31539600
I0810 23:41:25.247977 21864 layer_factory.hpp:74] Creating layer pool3
I0810 23:41:25.247988 21864 net.cpp:90] Creating Layer pool3
I0810 23:41:25.247997 21864 net.cpp:410] pool3 <- conv3
I0810 23:41:25.248008 21864 net.cpp:368] pool3 -> pool3
I0810 23:41:25.248023 21864 net.cpp:120] Setting up pool3
I0810 23:41:25.248039 21864 net.cpp:127] Top shape: 100 64 4 4 (102400)
I0810 23:41:25.248044 21864 net.cpp:133] Memory required for data: 31949200
I0810 23:41:25.248049 21864 layer_factory.hpp:74] Creating layer ip1
I0810 23:41:25.248070 21864 net.cpp:90] Creating Layer ip1
I0810 23:41:25.248077 21864 net.cpp:410] ip1 <- pool3
I0810 23:41:25.248092 21864 net.cpp:368] ip1 -> ip1
I0810 23:41:25.248113 21864 net.cpp:120] Setting up ip1
I0810 23:41:25.256134 21864 net.cpp:127] Top shape: 100 64 (6400)
I0810 23:41:25.256165 21864 net.cpp:133] Memory required for data: 31974800
I0810 23:41:25.256187 21864 layer_factory.hpp:74] Creating layer ip2
I0810 23:41:25.256222 21864 net.cpp:90] Creating Layer ip2
I0810 23:41:25.256240 21864 net.cpp:410] ip2 <- ip1
I0810 23:41:25.256274 21864 net.cpp:368] ip2 -> ip2
I0810 23:41:25.256296 21864 net.cpp:120] Setting up ip2
I0810 23:41:25.256422 21864 net.cpp:127] Top shape: 100 10 (1000)
I0810 23:41:25.256428 21864 net.cpp:133] Memory required for data: 31978800
I0810 23:41:25.256461 21864 layer_factory.hpp:74] Creating layer loss
I0810 23:41:25.256482 21864 net.cpp:90] Creating Layer loss
I0810 23:41:25.256489 21864 net.cpp:410] loss <- ip2
I0810 23:41:25.256500 21864 net.cpp:410] loss <- label
I0810 23:41:25.256517 21864 net.cpp:368] loss -> loss
I0810 23:41:25.256531 21864 net.cpp:120] Setting up loss
…
I0810 23:41:25.257256 21864 solver.cpp:154] Creating test net (#0) specified by net file: examples/cifar10/cifar10_quick_train_test.prototxt
I0810 23:41:25.257340 21864 net.cpp:287] The NetState phase (1) differed from the phase (0) specified by a rule in layer cifar
I0810 23:41:25.257496 21864 net.cpp:42] Initializing net from parameters: 
name: "CIFAR10_quick"
state {
  phase: TEST
}
layer {
  name: "cifar"
  type: "Data"
  top: "data"
  top: "label"
  include {
    phase: TEST
  }
  transform_param {
    mean_file: "examples/cifar10/mean.binaryproto"
  }
  data_param {
    source: "examples/cifar10/cifar10_test_lmdb"
    batch_size: 100
    backend: LMDB
  }
}
layer {
  name: "conv1"
  type: "Convolution"
  bottom: "data"
  top: "conv1"
  param {
    lr_mult: 1
  }
  param {
    lr_mult: 2
  }
  convolution_param {
    num_output: 32
    pad: 2
    kernel_size: 5
    stride: 1
    weight_filler {
      type: "gaussian"
      std: 0.0001
    }
    bias_filler {
      type: "constant"
    }
  }
}
layer {
  name: "pool1"
  type: "Pooling"
  bottom: "conv1"
  top: "pool1"
  pooling_param {
    pool: MAX
    kernel_size: 3
    stride: 2
  }
}
layer {
  name: "relu1"
  type: "ReLU"
  bottom: "pool1"
  top: "pool1"
}
layer {
  name: "conv2"
  type: "Convolution"
  bottom: "pool1"
  top: "conv2"
  param {
    lr_mult: 1
  }
  param {
    lr_mult: 2
  }
  convolution_param {
    num_output: 32
    pad: 2
    kernel_size: 5
    stride: 1
    weight_filler {
      type: "gaussian"
      std: 0.01
    }
    bias_filler {
      type: "constant"
    }
  }
}
layer {
  name: "relu2"
  type: "ReLU"
  bottom: "conv2"
  top: "conv2"
}
layer {
  name: "pool2"
  type: "Pooling"
  bottom: "conv2"
  top: "pool2"
  pooling_param {
    pool: AVE
    kernel_size: 3
    stride: 2
  }
}
layer {
  name: "conv3"
  type: "Convolution"
  bottom: "pool2"
  top: "conv3"
  param {
    lr_mult: 1
  }
  param {
    lr_mult: 2
  }
  convolution_param {
    num_output: 64
    pad: 2
    kernel_size: 5
    stride: 1
    weight_filler {
      type: "gaussian"
      std: 0.01
    }
    bias_filler {
      type: "constant"
    }
  }
}
layer {
  name: "relu3"
  type: "ReLU"
  bottom: "conv3"
  top: "conv3"
}
layer {
  name: "pool3"
  type: "Pooling"
  bottom: "conv3"
  top: "pool3"
  pooling_param {
    pool: AVE
    kernel_size: 3
    stride: 2
  }
}
layer {
  name: "ip1"
  type: "InnerProduct"
  bottom: "pool3"
  top: "ip1"
  param {
    lr_mult: 1
  }
  param {
    lr_mult: 2
  }
  inner_product_param {
    num_output: 64
    weight_filler {
      type: "gaussian"
      std: 0.1
    }
    bias_filler {
      type: "constant"
    }
  }
}
layer {
  name: "ip2"
  type: "InnerProduct"
  bottom: "ip1"
  top: "ip2"
  param {
    lr_mult: 1
  }
  param {
    lr_mult: 2
  }
  inner_product_param {
    num_output: 10
    weight_filler {
      type: "gaussian"
      std: 0.1
    }
    bias_filler {
      type: "constant"
    }
  }
}
layer {
  name: "accuracy"
  type: "Accuracy"
  bottom: "ip2"
  bottom: "label"
  top: "accuracy"
  include {
    phase: TEST
  }
}
layer {
  name: "loss"
  type: "SoftmaxWithLoss"
  bottom: "ip2"
  bottom: "label"
  top: "loss"
}
I0810 23:41:25.257737 21864 net.cpp:67] Memory required for data: 0
I0810 23:41:25.257782 21864 layer_factory.hpp:74] Creating layer cifar
I0810 23:41:25.257808 21864 net.cpp:90] Creating Layer cifar
I0810 23:41:25.257817 21864 net.cpp:368] cifar -> data
I0810 23:41:25.257843 21864 net.cpp:368] cifar -> label
I0810 23:41:25.257858 21864 net.cpp:120] Setting up cifar
I0810 23:41:25.257865 21864 data_transformer.cpp:22] Loading mean file from: examples/cifar10/mean.binaryproto
I0810 23:41:25.258081 21864 db_lmdb.cpp:22] Opened lmdb examples/cifar10/cifar10_test_lmdb
I0810 23:41:25.258116 21864 data_layer.cpp:52] output data size: 100,3,32,32
I0810 23:41:25.258528 21864 base_data_layer.cpp:42] Initializing prefetch
I0810 23:41:25.258587 21864 base_data_layer.cpp:44] Prefetch initialized.
I0810 23:41:25.258608 21864 net.cpp:127] Top shape: 100 3 32 32 (307200)
I0810 23:41:25.258622 21864 net.cpp:127] Top shape: 100 (100)
I0810 23:41:25.258628 21864 net.cpp:133] Memory required for data: 1229200
I0810 23:41:25.258644 21864 layer_factory.hpp:74] Creating layer label_cifar_1_split
I0810 23:41:25.258678 21864 net.cpp:90] Creating Layer label_cifar_1_split
I0810 23:41:25.258690 21864 net.cpp:410] label_cifar_1_split <- label
I0810 23:41:25.258718 21864 net.cpp:368] label_cifar_1_split -> label_cifar_1_split_0
I0810 23:41:25.258751 21864 net.cpp:368] label_cifar_1_split -> label_cifar_1_split_1
I0810 23:41:25.258786 21864 net.cpp:120] Setting up label_cifar_1_split
I0810 23:41:25.258811 21864 net.cpp:127] Top shape: 100 (100)
I0810 23:41:25.258821 21864 net.cpp:127] Top shape: 100 (100)
I0810 23:41:25.258827 21864 net.cpp:133] Memory required for data: 1230000
I0810 23:41:25.258836 21864 layer_factory.hpp:74] Creating layer conv1
I0810 23:41:25.258865 21864 net.cpp:90] Creating Layer conv1
I0810 23:41:25.258877 21864 net.cpp:410] conv1 <- data
I0810 23:41:25.258904 21864 net.cpp:368] conv1 -> conv1
I0810 23:41:25.258931 21864 net.cpp:120] Setting up conv1
I0810 23:41:25.259294 21864 net.cpp:127] Top shape: 100 32 32 32 (3276800)
I0810 23:41:25.259304 21864 net.cpp:133] Memory required for data: 14337200
I0810 23:41:25.259332 21864 layer_factory.hpp:74] Creating layer pool1
I0810 23:41:25.259356 21864 net.cpp:90] Creating Layer pool1
I0810 23:41:25.259367 21864 net.cpp:410] pool1 <- conv1
I0810 23:41:25.259392 21864 net.cpp:368] pool1 -> pool1
I0810 23:41:25.259696 21864 net.cpp:120] Setting up pool1
I0810 23:41:25.259742 21864 net.cpp:127] Top shape: 100 32 16 16 (819200)
I0810 23:41:25.259750 21864 net.cpp:133] Memory required for data: 17614000
I0810 23:41:25.259760 21864 layer_factory.hpp:74] Creating layer relu1
I0810 23:41:25.259785 21864 net.cpp:90] Creating Layer relu1
I0810 23:41:25.259796 21864 net.cpp:410] relu1 <- pool1
I0810 23:41:25.259821 21864 net.cpp:357] relu1 -> pool1 (in-place)
I0810 23:41:25.259840 21864 net.cpp:120] Setting up relu1
I0810 23:41:25.259855 21864 net.cpp:127] Top shape: 100 32 16 16 (819200)
I0810 23:41:25.259861 21864 net.cpp:133] Memory required for data: 20890800
I0810 23:41:25.259870 21864 layer_factory.hpp:74] Creating layer conv2
I0810 23:41:25.259903 21864 net.cpp:90] Creating Layer conv2
I0810 23:41:25.259914 21864 net.cpp:410] conv2 <- pool1
I0810 23:41:25.259944 21864 net.cpp:368] conv2 -> conv2
I0810 23:41:25.259970 21864 net.cpp:120] Setting up conv2
I0810 23:41:25.263044 21869 data_layer.cpp:118] Prefetch batch: 4 ms.
I0810 23:41:25.263073 21869 data_layer.cpp:119]      Read time: 0.418 ms.
I0810 23:41:25.263079 21869 data_layer.cpp:120] Transform time: 3.743 ms.
I0810 23:41:25.263486 21864 net.cpp:127] Top shape: 100 32 16 16 (819200)
I0810 23:41:25.263499 21864 net.cpp:133] Memory required for data: 24167600
I0810 23:41:25.263538 21864 layer_factory.hpp:74] Creating layer relu2
I0810 23:41:25.263571 21864 net.cpp:90] Creating Layer relu2
I0810 23:41:25.263587 21864 net.cpp:410] relu2 <- conv2
I0810 23:41:25.263615 21864 net.cpp:357] relu2 -> conv2 (in-place)
I0810 23:41:25.263634 21864 net.cpp:120] Setting up relu2
I0810 23:41:25.263649 21864 net.cpp:127] Top shape: 100 32 16 16 (819200)
I0810 23:41:25.263658 21864 net.cpp:133] Memory required for data: 27444400
I0810 23:41:25.263665 21864 layer_factory.hpp:74] Creating layer pool2
I0810 23:41:25.263689 21864 net.cpp:90] Creating Layer pool2
I0810 23:41:25.263698 21864 net.cpp:410] pool2 <- conv2
I0810 23:41:25.263720 21864 net.cpp:368] pool2 -> pool2
I0810 23:41:25.263741 21864 net.cpp:120] Setting up pool2
I0810 23:41:25.263767 21864 net.cpp:127] Top shape: 100 32 8 8 (204800)
I0810 23:41:25.263773 21864 net.cpp:133] Memory required for data: 28263600
I0810 23:41:25.263780 21864 layer_factory.hpp:74] Creating layer conv3
I0810 23:41:25.263814 21864 net.cpp:90] Creating Layer conv3
I0810 23:41:25.263824 21864 net.cpp:410] conv3 <- pool2
I0810 23:41:25.263849 21864 net.cpp:368] conv3 -> conv3
I0810 23:41:25.263878 21864 net.cpp:120] Setting up conv3
I0810 23:41:25.269830 21864 net.cpp:127] Top shape: 100 64 8 8 (409600)
I0810 23:41:25.269845 21864 net.cpp:133] Memory required for data: 29902000
I0810 23:41:25.269873 21864 layer_factory.hpp:74] Creating layer relu3
I0810 23:41:25.269896 21864 net.cpp:90] Creating Layer relu3
I0810 23:41:25.269909 21864 net.cpp:410] relu3 <- conv3
I0810 23:41:25.269942 21864 net.cpp:357] relu3 -> conv3 (in-place)
I0810 23:41:25.269960 21864 net.cpp:120] Setting up relu3
I0810 23:41:25.269974 21864 net.cpp:127] Top shape: 100 64 8 8 (409600)
I0810 23:41:25.269995 21864 net.cpp:133] Memory required for data: 31540400
I0810 23:41:25.270004 21864 layer_factory.hpp:74] Creating layer pool3
I0810 23:41:25.270025 21864 net.cpp:90] Creating Layer pool3
I0810 23:41:25.270035 21864 net.cpp:410] pool3 <- conv3
I0810 23:41:25.270059 21864 net.cpp:368] pool3 -> pool3
I0810 23:41:25.270081 21864 net.cpp:120] Setting up pool3
I0810 23:41:25.270104 21864 net.cpp:127] Top shape: 100 64 4 4 (102400)
I0810 23:41:25.270110 21864 net.cpp:133] Memory required for data: 31950000
I0810 23:41:25.270117 21864 layer_factory.hpp:74] Creating layer ip1
I0810 23:41:25.270141 21864 net.cpp:90] Creating Layer ip1
I0810 23:41:25.270151 21864 net.cpp:410] ip1 <- pool3
I0810 23:41:25.270174 21864 net.cpp:368] ip1 -> ip1
I0810 23:41:25.270195 21864 net.cpp:120] Setting up ip1
I0810 23:41:25.277765 21864 net.cpp:127] Top shape: 100 64 (6400)
I0810 23:41:25.277779 21864 net.cpp:133] Memory required for data: 31975600
I0810 23:41:25.277798 21864 layer_factory.hpp:74] Creating layer ip2
I0810 23:41:25.277829 21864 net.cpp:90] Creating Layer ip2
I0810 23:41:25.277843 21864 net.cpp:410] ip2 <- ip1
I0810 23:41:25.277871 21864 net.cpp:368] ip2 -> ip2
I0810 23:41:25.277894 21864 net.cpp:120] Setting up ip2
I0810 23:41:25.278008 21864 net.cpp:127] Top shape: 100 10 (1000)
I0810 23:41:25.278017 21864 net.cpp:133] Memory required for data: 31979600
I0810 23:41:25.278041 21864 layer_factory.hpp:74] Creating layer ip2_ip2_0_split
I0810 23:41:25.278059 21864 net.cpp:90] Creating Layer ip2_ip2_0_split
I0810 23:41:25.278069 21864 net.cpp:410] ip2_ip2_0_split <- ip2
I0810 23:41:25.278091 21864 net.cpp:368] ip2_ip2_0_split -> ip2_ip2_0_split_0
I0810 23:41:25.278115 21864 net.cpp:368] ip2_ip2_0_split -> ip2_ip2_0_split_1
I0810 23:41:25.278131 21864 net.cpp:120] Setting up ip2_ip2_0_split
I0810 23:41:25.278151 21864 net.cpp:127] Top shape: 100 10 (1000)
I0810 23:41:25.278158 21864 net.cpp:127] Top shape: 100 10 (1000)
I0810 23:41:25.278163 21864 net.cpp:133] Memory required for data: 31987600
I0810 23:41:25.278170 21864 layer_factory.hpp:74] Creating layer accuracy
I0810 23:41:25.278200 21864 net.cpp:90] Creating Layer accuracy
I0810 23:41:25.278209 21864 net.cpp:410] accuracy <- ip2_ip2_0_split_0
I0810 23:41:25.278226 21864 net.cpp:410] accuracy <- label_cifar_1_split_0
I0810 23:41:25.278312 21864 net.cpp:368] accuracy -> accuracy
…
