…
I0811 01:36:39.209552 28052 net.cpp:287] The NetState phase (0) differed from the phase (1) specified by a rule in layer cifar
I0811 01:36:39.209594 28052 net.cpp:287] The NetState phase (0) differed from the phase (1) specified by a rule in layer accuracy
I0811 01:36:39.209707 28052 net.cpp:42] Initializing net from parameters: 
name: "CIFAR10_quick"
state {
  phase: TRAIN
}
layer {
  name: "cifar"
  type: "Data"
  top: "data"
  top: "label"
  include {
    phase: TRAIN
  }
  transform_param {
    mean_file: "examples/cifar10/mean.binaryproto"
  }
  data_param {
    source: "examples/cifar10/cifar10_train_lmdb"
    batch_size: 100
    backend: LMDB
  }
}
layer {
  name: "conv1"
  type: "Convolution"
  bottom: "data"
  top: "conv1"
  param {
    lr_mult: 1
  }
  param {
    lr_mult: 2
  }
  convolution_param {
    num_output: 32
    pad: 2
    kernel_size: 5
    stride: 1
    weight_filler {
      type: "gaussian"
      std: 0.0001
    }
    bias_filler {
      type: "constant"
    }
  }
}
layer {
  name: "pool1"
  type: "Pooling"
  bottom: "conv1"
  top: "pool1"
  pooling_param {
    pool: MAX
    kernel_size: 3
    stride: 2
  }
}
layer {
  name: "relu1"
  type: "ReLU"
  bottom: "pool1"
  top: "pool1"
}
layer {
  name: "conv2"
  type: "Convolution"
  bottom: "pool1"
  top: "conv2"
  param {
    lr_mult: 1
  }
  param {
    lr_mult: 2
  }
  convolution_param {
    num_output: 32
    pad: 2
    kernel_size: 5
    stride: 1
    weight_filler {
      type: "gaussian"
      std: 0.01
    }
    bias_filler {
      type: "constant"
    }
  }
}
layer {
  name: "relu2"
  type: "ReLU"
  bottom: "conv2"
  top: "conv2"
}
layer {
  name: "pool2"
  type: "Pooling"
  bottom: "conv2"
  top: "pool2"
  pooling_param {
    pool: AVE
    kernel_size: 3
    stride: 2
  }
}
layer {
  name: "conv3"
  type: "Convolution"
  bottom: "pool2"
  top: "conv3"
  param {
    lr_mult: 1
  }
  param {
    lr_mult: 2
  }
  convolution_param {
    num_output: 64
    pad: 2
    kernel_size: 5
    stride: 1
    weight_filler {
      type: "gaussian"
      std: 0.01
    }
    bias_filler {
      type: "constant"
    }
  }
}
layer {
  name: "relu3"
  type: "ReLU"
  bottom: "conv3"
  top: "conv3"
}
layer {
  name: "pool3"
  type: "Pooling"
  bottom: "conv3"
  top: "pool3"
  pooling_param {
    pool: AVE
    kernel_size: 3
    stride: 2
  }
}
layer {
  name: "ip1"
  type: "InnerProduct"
  bottom: "pool3"
  top: "ip1"
  param {
    lr_mult: 1
  }
  param {
    lr_mult: 2
  }
  inner_product_param {
    num_output: 64
    weight_filler {
      type: "gaussian"
      std: 0.1
    }
    bias_filler {
      type: "constant"
    }
  }
}
layer {
  name: "ip2"
  type: "InnerProduct"
  bottom: "ip1"
  top: "ip2"
  param {
    lr_mult: 1
  }
  param {
    lr_mult: 2
  }
  inner_product_param {
    num_output: 10
    weight_filler {
      type: "gaussian"
      std: 0.1
    }
    bias_filler {
      type: "constant"
    }
  }
}
layer {
  name: "loss"
  type: "SoftmaxWithLoss"
  bottom: "ip2"
  bottom: "label"
  top: "loss"
}
I0811 01:36:39.210001 28052 net.cpp:67] Memory required for data: 0
I0811 01:36:39.210167 28052 layer_factory.hpp:74] Creating layer cifar
I0811 01:36:39.210222 28052 net.cpp:90] Creating Layer cifar
I0811 01:36:39.210240 28052 net.cpp:368] cifar -> data
I0811 01:36:39.210350 28052 net.cpp:368] cifar -> label
I0811 01:36:39.210381 28052 net.cpp:120] Setting up cifar
I0811 01:36:39.210407 28052 data_transformer.cpp:22] Loading mean file from: examples/cifar10/mean.binaryproto
I0811 01:36:39.210711 28052 db_lmdb.cpp:22] Opened lmdb examples/cifar10/cifar10_train_lmdb
I0811 01:36:39.210779 28052 data_layer.cpp:52] output data size: 100,3,32,32
I0811 01:36:39.211263 28052 base_data_layer.cpp:42] Initializing prefetch
I0811 01:36:39.211374 28052 base_data_layer.cpp:44] Prefetch initialized.
I0811 01:36:39.211421 28052 net.cpp:127] Top shape: 100 3 32 32 (307200)
I0811 01:36:39.211436 28052 net.cpp:127] Top shape: 100 (100)
I0811 01:36:39.211441 28052 net.cpp:133] Memory required for data: 1229200
I0811 01:36:39.211462 28052 layer_factory.hpp:74] Creating layer conv1
I0811 01:36:39.211571 28052 net.cpp:90] Creating Layer conv1
I0811 01:36:39.211596 28052 net.cpp:410] conv1 <- data
I0811 01:36:39.211658 28052 net.cpp:368] conv1 -> conv1
I0811 01:36:39.211700 28052 net.cpp:120] Setting up conv1
I0811 01:36:39.212903 28052 net.cpp:127] Top shape: 100 32 32 32 (3276800)
I0811 01:36:39.212927 28052 net.cpp:133] Memory required for data: 14336400
I0811 01:36:39.213009 28052 layer_factory.hpp:74] Creating layer pool1
I0811 01:36:39.213070 28052 net.cpp:90] Creating Layer pool1
I0811 01:36:39.213088 28052 net.cpp:410] pool1 <- conv1
I0811 01:36:39.213130 28052 net.cpp:368] pool1 -> pool1
I0811 01:36:39.213161 28052 net.cpp:120] Setting up pool1
I0811 01:36:39.213213 28052 net.cpp:127] Top shape: 100 32 16 16 (819200)
I0811 01:36:39.213222 28052 net.cpp:133] Memory required for data: 17613200
I0811 01:36:39.213229 28052 layer_factory.hpp:74] Creating layer relu1
I0811 01:36:39.213260 28052 net.cpp:90] Creating Layer relu1
I0811 01:36:39.213271 28052 net.cpp:410] relu1 <- pool1
I0811 01:36:39.213297 28052 net.cpp:357] relu1 -> pool1 (in-place)
I0811 01:36:39.213315 28052 net.cpp:120] Setting up relu1
I0811 01:36:39.213327 28052 net.cpp:127] Top shape: 100 32 16 16 (819200)
I0811 01:36:39.213332 28052 net.cpp:133] Memory required for data: 20890000
I0811 01:36:39.213338 28052 layer_factory.hpp:74] Creating layer conv2
I0811 01:36:39.213376 28052 net.cpp:90] Creating Layer conv2
I0811 01:36:39.213387 28052 net.cpp:410] conv2 <- pool1
I0811 01:36:39.213413 28052 net.cpp:368] conv2 -> conv2
I0811 01:36:39.213444 28052 net.cpp:120] Setting up conv2
I0811 01:36:39.217099 28052 net.cpp:127] Top shape: 100 32 16 16 (819200)
I0811 01:36:39.217128 28052 net.cpp:133] Memory required for data: 24166800
I0811 01:36:39.217191 28052 layer_factory.hpp:74] Creating layer relu2
I0811 01:36:39.217247 28052 net.cpp:90] Creating Layer relu2
I0811 01:36:39.217272 28052 net.cpp:410] relu2 <- conv2
I0811 01:36:39.217329 28052 net.cpp:357] relu2 -> conv2 (in-place)
I0811 01:36:39.217373 28052 net.cpp:120] Setting up relu2
I0811 01:36:39.217403 28052 net.cpp:127] Top shape: 100 32 16 16 (819200)
I0811 01:36:39.217418 28052 net.cpp:133] Memory required for data: 27443600
I0811 01:36:39.217435 28052 layer_factory.hpp:74] Creating layer pool2
I0811 01:36:39.217483 28052 net.cpp:90] Creating Layer pool2
I0811 01:36:39.217500 28052 net.cpp:410] pool2 <- conv2
I0811 01:36:39.217550 28052 net.cpp:368] pool2 -> pool2
I0811 01:36:39.217592 28052 net.cpp:120] Setting up pool2
I0811 01:36:39.217641 28052 net.cpp:127] Top shape: 100 32 8 8 (204800)
I0811 01:36:39.217653 28052 net.cpp:133] Memory required for data: 28262800
I0811 01:36:39.217670 28052 layer_factory.hpp:74] Creating layer conv3
I0811 01:36:39.217720 28052 net.cpp:90] Creating Layer conv3
I0811 01:36:39.217741 28052 net.cpp:410] conv3 <- pool2
I0811 01:36:39.217792 28052 net.cpp:368] conv3 -> conv3
I0811 01:36:39.217835 28052 net.cpp:120] Setting up conv3
I0811 01:36:39.217936 28056 data_layer.cpp:118] Prefetch batch: 6 ms.
I0811 01:36:39.218003 28056 data_layer.cpp:119]      Read time: 0.769 ms.
I0811 01:36:39.218017 28056 data_layer.cpp:120] Transform time: 5.1 ms.
I0811 01:36:39.224544 28052 net.cpp:127] Top shape: 100 64 8 8 (409600)
I0811 01:36:39.224565 28052 net.cpp:133] Memory required for data: 29901200
I0811 01:36:39.224617 28052 layer_factory.hpp:74] Creating layer relu3
I0811 01:36:39.224699 28052 net.cpp:90] Creating Layer relu3
I0811 01:36:39.224722 28052 net.cpp:410] relu3 <- conv3
I0811 01:36:39.224772 28052 net.cpp:357] relu3 -> conv3 (in-place)
I0811 01:36:39.224803 28052 net.cpp:120] Setting up relu3
I0811 01:36:39.224830 28052 net.cpp:127] Top shape: 100 64 8 8 (409600)
I0811 01:36:39.224838 28052 net.cpp:133] Memory required for data: 31539600
I0811 01:36:39.224849 28052 layer_factory.hpp:74] Creating layer pool3
I0811 01:36:39.224887 28052 net.cpp:90] Creating Layer pool3
I0811 01:36:39.224903 28052 net.cpp:410] pool3 <- conv3
I0811 01:36:39.224939 28052 net.cpp:368] pool3 -> pool3
I0811 01:36:39.224974 28052 net.cpp:120] Setting up pool3
I0811 01:36:39.225018 28052 net.cpp:127] Top shape: 100 64 4 4 (102400)
I0811 01:36:39.225026 28052 net.cpp:133] Memory required for data: 31949200
I0811 01:36:39.225039 28052 layer_factory.hpp:74] Creating layer ip1
I0811 01:36:39.225090 28052 net.cpp:90] Creating Layer ip1
I0811 01:36:39.225107 28052 net.cpp:410] ip1 <- pool3
I0811 01:36:39.225149 28052 net.cpp:368] ip1 -> ip1
I0811 01:36:39.225203 28052 net.cpp:120] Setting up ip1
I0811 01:36:39.232369 28052 net.cpp:127] Top shape: 100 64 (6400)
I0811 01:36:39.232379 28052 net.cpp:133] Memory required for data: 31974800
I0811 01:36:39.232398 28052 layer_factory.hpp:74] Creating layer ip2
I0811 01:36:39.232427 28052 net.cpp:90] Creating Layer ip2
I0811 01:36:39.232439 28052 net.cpp:410] ip2 <- ip1
I0811 01:36:39.232465 28052 net.cpp:368] ip2 -> ip2
I0811 01:36:39.232489 28052 net.cpp:120] Setting up ip2
I0811 01:36:39.232599 28052 net.cpp:127] Top shape: 100 10 (1000)
I0811 01:36:39.232607 28052 net.cpp:133] Memory required for data: 31978800
I0811 01:36:39.232632 28052 layer_factory.hpp:74] Creating layer loss
I0811 01:36:39.232657 28052 net.cpp:90] Creating Layer loss
I0811 01:36:39.232667 28052 net.cpp:410] loss <- ip2
I0811 01:36:39.232686 28052 net.cpp:410] loss <- label
I0811 01:36:39.232707 28052 net.cpp:368] loss -> loss
I0811 01:36:39.232725 28052 net.cpp:120] Setting up loss
…
I0811 01:36:39.233445 28052 solver.cpp:154] Creating test net (#0) specified by net file: examples/cifar10/cifar10_quick_train_test.prototxt
I0811 01:36:39.233515 28052 net.cpp:287] The NetState phase (1) differed from the phase (0) specified by a rule in layer cifar
I0811 01:36:39.233649 28052 net.cpp:42] Initializing net from parameters: 
name: "CIFAR10_quick"
state {
  phase: TEST
}
layer {
  name: "cifar"
  type: "Data"
  top: "data"
  top: "label"
  include {
    phase: TEST
  }
  transform_param {
    mean_file: "examples/cifar10/mean.binaryproto"
  }
  data_param {
    source: "examples/cifar10/cifar10_test_lmdb"
    batch_size: 100
    backend: LMDB
  }
}
layer {
  name: "conv1"
  type: "Convolution"
  bottom: "data"
  top: "conv1"
  param {
    lr_mult: 1
  }
  param {
    lr_mult: 2
  }
  convolution_param {
    num_output: 32
    pad: 2
    kernel_size: 5
    stride: 1
    weight_filler {
      type: "gaussian"
      std: 0.0001
    }
    bias_filler {
      type: "constant"
    }
  }
}
layer {
  name: "pool1"
  type: "Pooling"
  bottom: "conv1"
  top: "pool1"
  pooling_param {
    pool: MAX
    kernel_size: 3
    stride: 2
  }
}
layer {
  name: "relu1"
  type: "ReLU"
  bottom: "pool1"
  top: "pool1"
}
layer {
  name: "conv2"
  type: "Convolution"
  bottom: "pool1"
  top: "conv2"
  param {
    lr_mult: 1
  }
  param {
    lr_mult: 2
  }
  convolution_param {
    num_output: 32
    pad: 2
    kernel_size: 5
    stride: 1
    weight_filler {
      type: "gaussian"
      std: 0.01
    }
    bias_filler {
      type: "constant"
    }
  }
}
layer {
  name: "relu2"
  type: "ReLU"
  bottom: "conv2"
  top: "conv2"
}
layer {
  name: "pool2"
  type: "Pooling"
  bottom: "conv2"
  top: "pool2"
  pooling_param {
    pool: AVE
    kernel_size: 3
    stride: 2
  }
}
layer {
  name: "conv3"
  type: "Convolution"
  bottom: "pool2"
  top: "conv3"
  param {
    lr_mult: 1
  }
  param {
    lr_mult: 2
  }
  convolution_param {
    num_output: 64
    pad: 2
    kernel_size: 5
    stride: 1
    weight_filler {
      type: "gaussian"
      std: 0.01
    }
    bias_filler {
      type: "constant"
    }
  }
}
layer {
  name: "relu3"
  type: "ReLU"
  bottom: "conv3"
  top: "conv3"
}
layer {
  name: "pool3"
  type: "Pooling"
  bottom: "conv3"
  top: "pool3"
  pooling_param {
    pool: AVE
    kernel_size: 3
    stride: 2
  }
}
layer {
  name: "ip1"
  type: "InnerProduct"
  bottom: "pool3"
  top: "ip1"
  param {
    lr_mult: 1
  }
  param {
    lr_mult: 2
  }
  inner_product_param {
    num_output: 64
    weight_filler {
      type: "gaussian"
      std: 0.1
    }
    bias_filler {
      type: "constant"
    }
  }
}
layer {
  name: "ip2"
  type: "InnerProduct"
  bottom: "ip1"
  top: "ip2"
  param {
    lr_mult: 1
  }
  param {
    lr_mult: 2
  }
  inner_product_param {
    num_output: 10
    weight_filler {
      type: "gaussian"
      std: 0.1
    }
    bias_filler {
      type: "constant"
    }
  }
}
layer {
  name: "accuracy"
  type: "Accuracy"
  bottom: "ip2"
  bottom: "label"
  top: "accuracy"
  include {
    phase: TEST
  }
}
layer {
  name: "loss"
  type: "SoftmaxWithLoss"
  bottom: "ip2"
  bottom: "label"
  top: "loss"
}
I0811 01:36:39.233954 28052 net.cpp:67] Memory required for data: 0
I0811 01:36:39.234014 28052 layer_factory.hpp:74] Creating layer cifar
I0811 01:36:39.234040 28052 net.cpp:90] Creating Layer cifar
I0811 01:36:39.234053 28052 net.cpp:368] cifar -> data
I0811 01:36:39.234086 28052 net.cpp:368] cifar -> label
I0811 01:36:39.234107 28052 net.cpp:120] Setting up cifar
I0811 01:36:39.234115 28052 data_transformer.cpp:22] Loading mean file from: examples/cifar10/mean.binaryproto
I0811 01:36:39.234412 28052 db_lmdb.cpp:22] Opened lmdb examples/cifar10/cifar10_test_lmdb
I0811 01:36:39.234453 28052 data_layer.cpp:52] output data size: 100,3,32,32
I0811 01:36:39.234853 28052 base_data_layer.cpp:42] Initializing prefetch
I0811 01:36:39.234894 28052 base_data_layer.cpp:44] Prefetch initialized.
I0811 01:36:39.234921 28052 net.cpp:127] Top shape: 100 3 32 32 (307200)
I0811 01:36:39.234931 28052 net.cpp:127] Top shape: 100 (100)
I0811 01:36:39.234937 28052 net.cpp:133] Memory required for data: 1229200
I0811 01:36:39.234951 28052 layer_factory.hpp:74] Creating layer label_cifar_1_split
I0811 01:36:39.234979 28052 net.cpp:90] Creating Layer label_cifar_1_split
I0811 01:36:39.234992 28052 net.cpp:410] label_cifar_1_split <- label
I0811 01:36:39.235015 28052 net.cpp:368] label_cifar_1_split -> label_cifar_1_split_0
I0811 01:36:39.235045 28052 net.cpp:368] label_cifar_1_split -> label_cifar_1_split_1
I0811 01:36:39.235080 28052 net.cpp:120] Setting up label_cifar_1_split
I0811 01:36:39.235105 28052 net.cpp:127] Top shape: 100 (100)
I0811 01:36:39.235116 28052 net.cpp:127] Top shape: 100 (100)
I0811 01:36:39.235121 28052 net.cpp:133] Memory required for data: 1230000
I0811 01:36:39.235129 28052 layer_factory.hpp:74] Creating layer conv1
I0811 01:36:39.235158 28052 net.cpp:90] Creating Layer conv1
I0811 01:36:39.235169 28052 net.cpp:410] conv1 <- data
I0811 01:36:39.235198 28052 net.cpp:368] conv1 -> conv1
I0811 01:36:39.235239 28052 net.cpp:120] Setting up conv1
I0811 01:36:39.235592 28052 net.cpp:127] Top shape: 100 32 32 32 (3276800)
I0811 01:36:39.235601 28052 net.cpp:133] Memory required for data: 14337200
I0811 01:36:39.235630 28052 layer_factory.hpp:74] Creating layer pool1
I0811 01:36:39.235652 28052 net.cpp:90] Creating Layer pool1
I0811 01:36:39.235662 28052 net.cpp:410] pool1 <- conv1
I0811 01:36:39.235687 28052 net.cpp:368] pool1 -> pool1
I0811 01:36:39.235709 28052 net.cpp:120] Setting up pool1
I0811 01:36:39.235738 28052 net.cpp:127] Top shape: 100 32 16 16 (819200)
I0811 01:36:39.235745 28052 net.cpp:133] Memory required for data: 17614000
I0811 01:36:39.235754 28052 layer_factory.hpp:74] Creating layer relu1
I0811 01:36:39.235775 28052 net.cpp:90] Creating Layer relu1
I0811 01:36:39.235785 28052 net.cpp:410] relu1 <- pool1
I0811 01:36:39.235806 28052 net.cpp:357] relu1 -> pool1 (in-place)
I0811 01:36:39.235823 28052 net.cpp:120] Setting up relu1
I0811 01:36:39.235838 28052 net.cpp:127] Top shape: 100 32 16 16 (819200)
I0811 01:36:39.235846 28052 net.cpp:133] Memory required for data: 20890800
I0811 01:36:39.235854 28052 layer_factory.hpp:74] Creating layer conv2
I0811 01:36:39.235880 28052 net.cpp:90] Creating Layer conv2
I0811 01:36:39.235890 28052 net.cpp:410] conv2 <- pool1
I0811 01:36:39.235918 28052 net.cpp:368] conv2 -> conv2
I0811 01:36:39.235941 28052 net.cpp:120] Setting up conv2
I0811 01:36:39.238915 28057 data_layer.cpp:118] Prefetch batch: 3 ms.
I0811 01:36:39.238937 28057 data_layer.cpp:119]      Read time: 0.336 ms.
I0811 01:36:39.238942 28057 data_layer.cpp:120] Transform time: 3.436 ms.
I0811 01:36:39.239127 28052 net.cpp:127] Top shape: 100 32 16 16 (819200)
I0811 01:36:39.239135 28052 net.cpp:133] Memory required for data: 24167600
I0811 01:36:39.239158 28052 layer_factory.hpp:74] Creating layer relu2
I0811 01:36:39.239177 28052 net.cpp:90] Creating Layer relu2
I0811 01:36:39.239187 28052 net.cpp:410] relu2 <- conv2
I0811 01:36:39.239223 28052 net.cpp:357] relu2 -> conv2 (in-place)
I0811 01:36:39.239243 28052 net.cpp:120] Setting up relu2
I0811 01:36:39.239269 28052 net.cpp:127] Top shape: 100 32 16 16 (819200)
I0811 01:36:39.239275 28052 net.cpp:133] Memory required for data: 27444400
I0811 01:36:39.239282 28052 layer_factory.hpp:74] Creating layer pool2
I0811 01:36:39.239301 28052 net.cpp:90] Creating Layer pool2
I0811 01:36:39.239310 28052 net.cpp:410] pool2 <- conv2
I0811 01:36:39.239332 28052 net.cpp:368] pool2 -> pool2
I0811 01:36:39.239351 28052 net.cpp:120] Setting up pool2
I0811 01:36:39.239373 28052 net.cpp:127] Top shape: 100 32 8 8 (204800)
I0811 01:36:39.239379 28052 net.cpp:133] Memory required for data: 28263600
I0811 01:36:39.239387 28052 layer_factory.hpp:74] Creating layer conv3
I0811 01:36:39.239413 28052 net.cpp:90] Creating Layer conv3
I0811 01:36:39.239423 28052 net.cpp:410] conv3 <- pool2
I0811 01:36:39.239449 28052 net.cpp:368] conv3 -> conv3
I0811 01:36:39.239475 28052 net.cpp:120] Setting up conv3
I0811 01:36:39.245884 28052 net.cpp:127] Top shape: 100 64 8 8 (409600)
I0811 01:36:39.245934 28052 net.cpp:133] Memory required for data: 29902000
I0811 01:36:39.246037 28052 layer_factory.hpp:74] Creating layer relu3
I0811 01:36:39.246119 28052 net.cpp:90] Creating Layer relu3
I0811 01:36:39.246160 28052 net.cpp:410] relu3 <- conv3
I0811 01:36:39.246255 28052 net.cpp:357] relu3 -> conv3 (in-place)
I0811 01:36:39.246286 28052 net.cpp:120] Setting up relu3
I0811 01:36:39.246304 28052 net.cpp:127] Top shape: 100 64 8 8 (409600)
I0811 01:36:39.246333 28052 net.cpp:133] Memory required for data: 31540400
I0811 01:36:39.246356 28052 layer_factory.hpp:74] Creating layer pool3
I0811 01:36:39.246419 28052 net.cpp:90] Creating Layer pool3
I0811 01:36:39.246449 28052 net.cpp:410] pool3 <- conv3
I0811 01:36:39.246529 28052 net.cpp:368] pool3 -> pool3
I0811 01:36:39.246592 28052 net.cpp:120] Setting up pool3
I0811 01:36:39.246660 28052 net.cpp:127] Top shape: 100 64 4 4 (102400)
I0811 01:36:39.246676 28052 net.cpp:133] Memory required for data: 31950000
I0811 01:36:39.246697 28052 layer_factory.hpp:74] Creating layer ip1
I0811 01:36:39.246762 28052 net.cpp:90] Creating Layer ip1
I0811 01:36:39.246786 28052 net.cpp:410] ip1 <- pool3
I0811 01:36:39.246857 28052 net.cpp:368] ip1 -> ip1
I0811 01:36:39.246902 28052 net.cpp:120] Setting up ip1
I0811 01:36:39.254470 28052 net.cpp:127] Top shape: 100 64 (6400)
I0811 01:36:39.254501 28052 net.cpp:133] Memory required for data: 31975600
I0811 01:36:39.254539 28052 layer_factory.hpp:74] Creating layer ip2
I0811 01:36:39.254611 28052 net.cpp:90] Creating Layer ip2
I0811 01:36:39.254637 28052 net.cpp:410] ip2 <- ip1
I0811 01:36:39.254696 28052 net.cpp:368] ip2 -> ip2
I0811 01:36:39.254740 28052 net.cpp:120] Setting up ip2
I0811 01:36:39.254907 28052 net.cpp:127] Top shape: 100 10 (1000)
I0811 01:36:39.254920 28052 net.cpp:133] Memory required for data: 31979600
I0811 01:36:39.254967 28052 layer_factory.hpp:74] Creating layer ip2_ip2_0_split
I0811 01:36:39.255007 28052 net.cpp:90] Creating Layer ip2_ip2_0_split
I0811 01:36:39.255024 28052 net.cpp:410] ip2_ip2_0_split <- ip2
I0811 01:36:39.255064 28052 net.cpp:368] ip2_ip2_0_split -> ip2_ip2_0_split_0
I0811 01:36:39.255105 28052 net.cpp:368] ip2_ip2_0_split -> ip2_ip2_0_split_1
I0811 01:36:39.255132 28052 net.cpp:120] Setting up ip2_ip2_0_split
I0811 01:36:39.255170 28052 net.cpp:127] Top shape: 100 10 (1000)
I0811 01:36:39.255183 28052 net.cpp:127] Top shape: 100 10 (1000)
I0811 01:36:39.255189 28052 net.cpp:133] Memory required for data: 31987600
I0811 01:36:39.255226 28052 layer_factory.hpp:74] Creating layer accuracy
I0811 01:36:39.255301 28052 net.cpp:90] Creating Layer accuracy
I0811 01:36:39.255317 28052 net.cpp:410] accuracy <- ip2_ip2_0_split_0
I0811 01:36:39.255347 28052 net.cpp:410] accuracy <- label_cifar_1_split_0
I0811 01:36:39.255395 28052 net.cpp:368] accuracy -> accuracy
…
